layer {
  name: "input"
  type: "ImageData"
  top: "input"
  top: "trash"
  transform_param {
    scale: 0.00390625
  }
  image_data_param {
    source: "./datas/flower_dataset/train_source27.txt"
    batch_size: 1
    shuffle: false
    new_height: 192
    new_width: 192
    is_color: false
  }
}
layer {
  name: "Convolution1"
  type: "Convolution"
  bottom: "input"
  top: "Convolution1"
  convolution_param {
    num_output: 16
    bias_term: true
    pad: 1
    kernel_size: 3
    stride: 1
    weight_filler {
      type: "xavier"
    }
    bias_filler {
      type: "xavier"
    }
    dilation: 1
  }
}
layer {
  name: "ReLU1"
  type: "ReLU"
  bottom: "Convolution1"
  top: "Convolution1"
  relu_param {
    negative_slope: 0.2
  }
}
layer {
  name: "Convolution2"
  type: "Convolution"
  bottom: "Convolution1"
  top: "Convolution2"
  convolution_param {
    num_output: 16
    bias_term: true
    pad: 1
    kernel_size: 3
    stride: 1
    weight_filler {
      type: "xavier"
    }
    bias_filler {
      type: "xavier"
    }
  }
}
layer {
  name: "conv1"
  type: "ReLU"
  bottom: "Convolution2"
  top: "Convolution2"
  relu_param {
    negative_slope: 0.2
  }
}
layer {
  name: "Pooling1"
  type: "Pooling"
  bottom: "Convolution2"
  top: "Pooling1"
  pooling_param {
    pool: MAX
    kernel_size: 3
    stride: 2
  }
}
layer {
  name: "poo1"
  type: "ReLU"
  bottom: "Pooling1"
  top: "Pooling1"
  relu_param {
    negative_slope: 0.2
  }
}
layer {
  name: "Convolution3"
  type: "Convolution"
  bottom: "Pooling1"
  top: "Convolution3"
  convolution_param {
    num_output: 32
    bias_term: true
    pad: 1
    kernel_size: 3
    stride: 1
    weight_filler {
      type: "xavier"
    }
    bias_filler {
      type: "xavier"
    }
    dilation: 1
  }
}
layer {
  name: "ReLU2"
  type: "ReLU"
  bottom: "Convolution3"
  top: "Convolution3"
  relu_param {
    negative_slope: 0.2
  }
}
layer {
  name: "Convolution4"
  type: "Convolution"
  bottom: "Convolution3"
  top: "Convolution4"
  convolution_param {
    num_output: 32
    bias_term: true
    pad: 1
    kernel_size: 3
    stride: 1
    weight_filler {
      type: "xavier"
    }
    bias_filler {
      type: "xavier"
    }
  }
}
layer {
  name: "conv2"
  type: "ReLU"
  bottom: "Convolution4"
  top: "Convolution4"
  relu_param {
    negative_slope: 0.2
  }
}
layer {
  name: "Pooling2"
  type: "Pooling"
  bottom: "Convolution4"
  top: "Pooling2"
  pooling_param {
    pool: MAX
    kernel_size: 3
    stride: 2
  }
}
layer {
  name: "poo2"
  type: "ReLU"
  bottom: "Pooling2"
  top: "Pooling2"
  relu_param {
    negative_slope: 0.2
  }
}
layer {
  name: "Convolution5"
  type: "Convolution"
  bottom: "Pooling2"
  top: "Convolution5"
  convolution_param {
    num_output: 64
    bias_term: true
    pad: 1
    kernel_size: 3
    stride: 1
    weight_filler {
      type: "xavier"
    }
    bias_filler {
      type: "xavier"
    }
    dilation: 1
  }
}
layer {
  name: "ReLU3"
  type: "ReLU"
  bottom: "Convolution5"
  top: "Convolution5"
  relu_param {
    negative_slope: 0.2
  }
}
layer {
  name: "Convolution6"
  type: "Convolution"
  bottom: "Convolution5"
  top: "Convolution6"
  convolution_param {
    num_output: 64
    bias_term: true
    pad: 1
    kernel_size: 3
    stride: 1
    weight_filler {
      type: "xavier"
    }
    bias_filler {
      type: "xavier"
    }
  }
}
layer {
  name: "conv3"
  type: "ReLU"
  bottom: "Convolution6"
  top: "Convolution6"
  relu_param {
    negative_slope: 0.2
  }
}
layer {
  name: "Pooling3"
  type: "Pooling"
  bottom: "Convolution6"
  top: "Pooling3"
  pooling_param {
    pool: MAX
    kernel_size: 3
    stride: 2
  }
}
layer {
  name: "poo3"
  type: "ReLU"
  bottom: "Pooling3"
  top: "Pooling3"
  relu_param {
    negative_slope: 0.2
  }
}
layer {
  name: "Convolution7"
  type: "Convolution"
  bottom: "Pooling3"
  top: "Convolution7"
  convolution_param {
    num_output: 128
    bias_term: true
    pad: 1
    kernel_size: 3
    stride: 1
    weight_filler {
      type: "xavier"
    }
    bias_filler {
      type: "xavier"
    }
    dilation: 1
  }
}
layer {
  name: "ReLU4"
  type: "ReLU"
  bottom: "Convolution7"
  top: "Convolution7"
  relu_param {
    negative_slope: 0.2
  }
}
layer {
  name: "Convolution8"
  type: "Convolution"
  bottom: "Convolution7"
  top: "Convolution8"
  convolution_param {
    num_output: 128
    bias_term: true
    pad: 1
    kernel_size: 3
    stride: 1
    weight_filler {
      type: "xavier"
    }
    bias_filler {
      type: "xavier"
    }
  }
}
layer {
  name: "conv4"
  type: "ReLU"
  bottom: "Convolution8"
  top: "Convolution8"
  relu_param {
    negative_slope: 0.2
  }
}
layer {
  name: "Pooling4"
  type: "Pooling"
  bottom: "Convolution8"
  top: "Pooling4"
  pooling_param {
    pool: MAX
    kernel_size: 3
    stride: 2
  }
}
layer {
  name: "poo4"
  type: "ReLU"
  bottom: "Pooling4"
  top: "Pooling4"
  relu_param {
    negative_slope: 0.2
  }
}
layer {
  name: "Convolution9"
  type: "Convolution"
  bottom: "Pooling4"
  top: "Convolution9"
  convolution_param {
    num_output: 256
    bias_term: true
    pad: 1
    kernel_size: 3
    stride: 1
    weight_filler {
      type: "xavier"
    }
    bias_filler {
      type: "xavier"
    }
    dilation: 1
  }
}
layer {
  name: "ReLU5"
  type: "ReLU"
  bottom: "Convolution9"
  top: "Convolution9"
  relu_param {
    negative_slope: 0.2
  }
}
layer {
  name: "Convolution10"
  type: "Convolution"
  bottom: "Convolution9"
  top: "Convolution10"
  convolution_param {
    num_output: 256
    bias_term: true
    pad: 1
    kernel_size: 3
    stride: 1
    weight_filler {
      type: "xavier"
    }
    bias_filler {
      type: "xavier"
    }
  }
}
layer {
  name: "conv5"
  type: "ReLU"
  bottom: "Convolution10"
  top: "Convolution10"
  relu_param {
    negative_slope: 0.2
  }
}
layer {
  name: "Pooling5"
  type: "Pooling"
  bottom: "Convolution10"
  top: "Pooling5"
  pooling_param {
    pool: MAX
    kernel_size: 3
    stride: 2
  }
}
layer {
  name: "poo5"
  type: "ReLU"
  bottom: "Pooling5"
  top: "Pooling5"
  relu_param {
    negative_slope: 0.2
  }
}
layer {
  name: "Convolution11"
  type: "Convolution"
  bottom: "Pooling5"
  top: "Convolution11"
  convolution_param {
    num_output: 512
    bias_term: true
    pad: 1
    kernel_size: 3
    stride: 1
    weight_filler {
      type: "xavier"
    }
    bias_filler {
      type: "xavier"
    }
    dilation: 1
  }
}
layer {
  name: "ReLU6"
  type: "ReLU"
  bottom: "Convolution11"
  top: "Convolution11"
  relu_param {
    negative_slope: 0.2
  }
}
layer {
  name: "Convolution12"
  type: "Convolution"
  bottom: "Convolution11"
  top: "Convolution12"
  convolution_param {
    num_output: 512
    bias_term: true
    pad: 3
    kernel_size: 3
    stride: 1
    weight_filler {
      type: "xavier"
    }
    bias_filler {
      type: "xavier"
    }
    dilation: 3
  }
}
layer {
  name: "ReLU7"
  type: "ReLU"
  bottom: "Convolution12"
  top: "Convolution12"
  relu_param {
    negative_slope: 0.2
  }
}
layer {
  name: "Convolution13"
  type: "Convolution"
  bottom: "Convolution12"
  top: "Convolution13"
  convolution_param {
    num_output: 512
    bias_term: true
    pad: 6
    kernel_size: 3
    stride: 1
    weight_filler {
      type: "xavier"
    }
    bias_filler {
      type: "xavier"
    }
    dilation: 6
  }
}
layer {
  name: "Eltwise1"
  type: "Eltwise"
  bottom: "Convolution13"
  bottom: "Convolution11"
  top: "Eltwise1"
  eltwise_param {
    operation: SUM
  }
}
layer {
  name: "feature"
  type: "ReLU"
  bottom: "Eltwise1"
  top: "Eltwise1"
  relu_param {
    negative_slope: 0.2
  }
}
layer {
  name: "Deconvolution1"
  type: "Deconvolution"
  bottom: "Convolution4"
  top: "Deconvolution1"
  convolution_param {
    num_output: 64
    pad: 0
    kernel_size: 3
    stride: 2
  }
}
layer {
  name: "ReLU8"
  type: "ReLU"
  bottom: "Deconvolution1"
  top: "Deconvolution1"
  relu_param {
    negative_slope: 0.2
  }
}
layer {
  name: "DummyData1"
  type: "DummyData"
  top: "DummyData1"
  dummy_data_param {
    shape {
      dim: 1
      dim: 64
      dim: 192
      dim: 192
    }
  }
}
layer {
  name: "Crop1"
  type: "Crop"
  bottom: "Deconvolution1"
  bottom: "DummyData1"
  top: "Crop1"
  crop_param {
    axis: 2
    offset: 0
  }
}
layer {
  name: "deconv_in_1_1"
  type: "Concat"
  bottom: "Crop1"
  bottom: "Convolution2"
  top: "deconv_in_1_1"
  concat_param {
    axis: 1
  }
}
layer {
  name: "Convolution14"
  type: "Convolution"
  bottom: "deconv_in_1_1"
  top: "Convolution14"
  convolution_param {
    num_output: 64
    bias_term: true
    pad: 1
    kernel_size: 3
    stride: 1
    weight_filler {
      type: "xavier"
    }
    bias_filler {
      type: "xavier"
    }
    dilation: 1
  }
}
layer {
  name: "conv_in_1_1"
  type: "ReLU"
  bottom: "Convolution14"
  top: "Convolution14"
  relu_param {
    negative_slope: 0.2
  }
}
layer {
  name: "Deconvolution2"
  type: "Deconvolution"
  bottom: "Convolution6"
  top: "Deconvolution2"
  convolution_param {
    num_output: 64
    pad: 0
    kernel_size: 3
    stride: 2
  }
}
layer {
  name: "ReLU9"
  type: "ReLU"
  bottom: "Deconvolution2"
  top: "Deconvolution2"
  relu_param {
    negative_slope: 0.2
  }
}
layer {
  name: "DummyData2"
  type: "DummyData"
  top: "DummyData2"
  dummy_data_param {
    shape {
      dim: 1
      dim: 64
      dim: 96
      dim: 96
    }
  }
}
layer {
  name: "Crop2"
  type: "Crop"
  bottom: "Deconvolution2"
  bottom: "DummyData2"
  top: "Crop2"
  crop_param {
    axis: 2
    offset: 0
  }
}
layer {
  name: "deconv_in_2_1"
  type: "Concat"
  bottom: "Crop2"
  bottom: "Convolution4"
  top: "deconv_in_2_1"
  concat_param {
    axis: 1
  }
}
layer {
  name: "Convolution15"
  type: "Convolution"
  bottom: "deconv_in_2_1"
  top: "Convolution15"
  convolution_param {
    num_output: 64
    bias_term: true
    pad: 1
    kernel_size: 3
    stride: 1
    weight_filler {
      type: "xavier"
    }
    bias_filler {
      type: "xavier"
    }
    dilation: 1
  }
}
layer {
  name: "conv_in_2_1"
  type: "ReLU"
  bottom: "Convolution15"
  top: "Convolution15"
  relu_param {
    negative_slope: 0.2
  }
}
layer {
  name: "Deconvolution3"
  type: "Deconvolution"
  bottom: "Convolution15"
  top: "Deconvolution3"
  convolution_param {
    num_output: 64
    pad: 0
    kernel_size: 3
    stride: 2
  }
}
layer {
  name: "ReLU10"
  type: "ReLU"
  bottom: "Deconvolution3"
  top: "Deconvolution3"
  relu_param {
    negative_slope: 0.2
  }
}
layer {
  name: "DummyData3"
  type: "DummyData"
  top: "DummyData3"
  dummy_data_param {
    shape {
      dim: 1
      dim: 64
      dim: 192
      dim: 192
    }
  }
}
layer {
  name: "Crop3"
  type: "Crop"
  bottom: "Deconvolution3"
  bottom: "DummyData3"
  top: "Crop3"
  crop_param {
    axis: 2
    offset: 0
  }
}
layer {
  name: "deconv_in_2_2"
  type: "Concat"
  bottom: "Crop3"
  bottom: "Convolution14"
  top: "deconv_in_2_2"
  concat_param {
    axis: 1
  }
}
layer {
  name: "Convolution16"
  type: "Convolution"
  bottom: "deconv_in_2_2"
  top: "Convolution16"
  convolution_param {
    num_output: 64
    bias_term: true
    pad: 1
    kernel_size: 3
    stride: 1
    weight_filler {
      type: "xavier"
    }
    bias_filler {
      type: "xavier"
    }
    dilation: 1
  }
}
layer {
  name: "conv_in_2_2"
  type: "ReLU"
  bottom: "Convolution16"
  top: "Convolution16"
  relu_param {
    negative_slope: 0.2
  }
}
layer {
  name: "Deconvolution4"
  type: "Deconvolution"
  bottom: "Convolution8"
  top: "Deconvolution4"
  convolution_param {
    num_output: 64
    pad: 0
    kernel_size: 3
    stride: 2
  }
}
layer {
  name: "ReLU11"
  type: "ReLU"
  bottom: "Deconvolution4"
  top: "Deconvolution4"
  relu_param {
    negative_slope: 0.2
  }
}
layer {
  name: "DummyData4"
  type: "DummyData"
  top: "DummyData4"
  dummy_data_param {
    shape {
      dim: 1
      dim: 64
      dim: 48
      dim: 48
    }
  }
}
layer {
  name: "Crop4"
  type: "Crop"
  bottom: "Deconvolution4"
  bottom: "DummyData4"
  top: "Crop4"
  crop_param {
    axis: 2
    offset: 0
  }
}
layer {
  name: "deconv_in_3_1"
  type: "Concat"
  bottom: "Crop4"
  bottom: "Convolution6"
  top: "deconv_in_3_1"
  concat_param {
    axis: 1
  }
}
layer {
  name: "Convolution17"
  type: "Convolution"
  bottom: "deconv_in_3_1"
  top: "Convolution17"
  convolution_param {
    num_output: 64
    bias_term: true
    pad: 1
    kernel_size: 3
    stride: 1
    weight_filler {
      type: "xavier"
    }
    bias_filler {
      type: "xavier"
    }
    dilation: 1
  }
}
layer {
  name: "conv_in_3_1"
  type: "ReLU"
  bottom: "Convolution17"
  top: "Convolution17"
  relu_param {
    negative_slope: 0.2
  }
}
layer {
  name: "Deconvolution5"
  type: "Deconvolution"
  bottom: "Convolution17"
  top: "Deconvolution5"
  convolution_param {
    num_output: 64
    pad: 0
    kernel_size: 3
    stride: 2
  }
}
layer {
  name: "ReLU12"
  type: "ReLU"
  bottom: "Deconvolution5"
  top: "Deconvolution5"
  relu_param {
    negative_slope: 0.2
  }
}
layer {
  name: "DummyData5"
  type: "DummyData"
  top: "DummyData5"
  dummy_data_param {
    shape {
      dim: 1
      dim: 64
      dim: 96
      dim: 96
    }
  }
}
layer {
  name: "Crop5"
  type: "Crop"
  bottom: "Deconvolution5"
  bottom: "DummyData5"
  top: "Crop5"
  crop_param {
    axis: 2
    offset: 0
  }
}
layer {
  name: "deconv_in_3_2"
  type: "Concat"
  bottom: "Crop5"
  bottom: "Convolution15"
  top: "deconv_in_3_2"
  concat_param {
    axis: 1
  }
}
layer {
  name: "Convolution18"
  type: "Convolution"
  bottom: "deconv_in_3_2"
  top: "Convolution18"
  convolution_param {
    num_output: 64
    bias_term: true
    pad: 1
    kernel_size: 3
    stride: 1
    weight_filler {
      type: "xavier"
    }
    bias_filler {
      type: "xavier"
    }
    dilation: 1
  }
}
layer {
  name: "conv_in_3_2"
  type: "ReLU"
  bottom: "Convolution18"
  top: "Convolution18"
  relu_param {
    negative_slope: 0.2
  }
}
layer {
  name: "Deconvolution6"
  type: "Deconvolution"
  bottom: "Convolution18"
  top: "Deconvolution6"
  convolution_param {
    num_output: 64
    pad: 0
    kernel_size: 3
    stride: 2
  }
}
layer {
  name: "ReLU13"
  type: "ReLU"
  bottom: "Deconvolution6"
  top: "Deconvolution6"
  relu_param {
    negative_slope: 0.2
  }
}
layer {
  name: "DummyData6"
  type: "DummyData"
  top: "DummyData6"
  dummy_data_param {
    shape {
      dim: 1
      dim: 64
      dim: 192
      dim: 192
    }
  }
}
layer {
  name: "Crop6"
  type: "Crop"
  bottom: "Deconvolution6"
  bottom: "DummyData6"
  top: "Crop6"
  crop_param {
    axis: 2
    offset: 0
  }
}
layer {
  name: "deconv_in_3_3"
  type: "Concat"
  bottom: "Crop6"
  bottom: "Convolution16"
  top: "deconv_in_3_3"
  concat_param {
    axis: 1
  }
}
layer {
  name: "Convolution19"
  type: "Convolution"
  bottom: "deconv_in_3_3"
  top: "Convolution19"
  convolution_param {
    num_output: 64
    bias_term: true
    pad: 1
    kernel_size: 3
    stride: 1
    weight_filler {
      type: "xavier"
    }
    bias_filler {
      type: "xavier"
    }
    dilation: 1
  }
}
layer {
  name: "conv_in_3_3"
  type: "ReLU"
  bottom: "Convolution19"
  top: "Convolution19"
  relu_param {
    negative_slope: 0.2
  }
}
layer {
  name: "Deconvolution7"
  type: "Deconvolution"
  bottom: "Convolution10"
  top: "Deconvolution7"
  convolution_param {
    num_output: 128
    pad: 0
    kernel_size: 3
    stride: 2
  }
}
layer {
  name: "ReLU14"
  type: "ReLU"
  bottom: "Deconvolution7"
  top: "Deconvolution7"
  relu_param {
    negative_slope: 0.2
  }
}
layer {
  name: "DummyData7"
  type: "DummyData"
  top: "DummyData7"
  dummy_data_param {
    shape {
      dim: 1
      dim: 128
      dim: 24
      dim: 24
    }
  }
}
layer {
  name: "Crop7"
  type: "Crop"
  bottom: "Deconvolution7"
  bottom: "DummyData7"
  top: "Crop7"
  crop_param {
    axis: 2
    offset: 0
  }
}
layer {
  name: "deconv_in_4_1"
  type: "Concat"
  bottom: "Crop7"
  bottom: "Convolution8"
  top: "deconv_in_4_1"
  concat_param {
    axis: 1
  }
}
layer {
  name: "Convolution20"
  type: "Convolution"
  bottom: "deconv_in_4_1"
  top: "Convolution20"
  convolution_param {
    num_output: 128
    bias_term: true
    pad: 1
    kernel_size: 3
    stride: 1
    weight_filler {
      type: "xavier"
    }
    bias_filler {
      type: "xavier"
    }
    dilation: 1
  }
}
layer {
  name: "conv_in_4_1"
  type: "ReLU"
  bottom: "Convolution20"
  top: "Convolution20"
  relu_param {
    negative_slope: 0.2
  }
}
layer {
  name: "Deconvolution8"
  type: "Deconvolution"
  bottom: "Convolution20"
  top: "Deconvolution8"
  convolution_param {
    num_output: 64
    pad: 0
    kernel_size: 3
    stride: 2
  }
}
layer {
  name: "ReLU15"
  type: "ReLU"
  bottom: "Deconvolution8"
  top: "Deconvolution8"
  relu_param {
    negative_slope: 0.2
  }
}
layer {
  name: "DummyData8"
  type: "DummyData"
  top: "DummyData8"
  dummy_data_param {
    shape {
      dim: 1
      dim: 64
      dim: 48
      dim: 48
    }
  }
}
layer {
  name: "Crop8"
  type: "Crop"
  bottom: "Deconvolution8"
  bottom: "DummyData8"
  top: "Crop8"
  crop_param {
    axis: 2
    offset: 0
  }
}
layer {
  name: "deconv_in_4_2"
  type: "Concat"
  bottom: "Crop8"
  bottom: "Convolution17"
  top: "deconv_in_4_2"
  concat_param {
    axis: 1
  }
}
layer {
  name: "Convolution21"
  type: "Convolution"
  bottom: "deconv_in_4_2"
  top: "Convolution21"
  convolution_param {
    num_output: 64
    bias_term: true
    pad: 1
    kernel_size: 3
    stride: 1
    weight_filler {
      type: "xavier"
    }
    bias_filler {
      type: "xavier"
    }
    dilation: 1
  }
}
layer {
  name: "conv_in_4_2"
  type: "ReLU"
  bottom: "Convolution21"
  top: "Convolution21"
  relu_param {
    negative_slope: 0.2
  }
}
layer {
  name: "Deconvolution9"
  type: "Deconvolution"
  bottom: "Convolution21"
  top: "Deconvolution9"
  convolution_param {
    num_output: 64
    pad: 0
    kernel_size: 3
    stride: 2
  }
}
layer {
  name: "ReLU16"
  type: "ReLU"
  bottom: "Deconvolution9"
  top: "Deconvolution9"
  relu_param {
    negative_slope: 0.2
  }
}
layer {
  name: "DummyData9"
  type: "DummyData"
  top: "DummyData9"
  dummy_data_param {
    shape {
      dim: 1
      dim: 64
      dim: 96
      dim: 96
    }
  }
}
layer {
  name: "Crop9"
  type: "Crop"
  bottom: "Deconvolution9"
  bottom: "DummyData9"
  top: "Crop9"
  crop_param {
    axis: 2
    offset: 0
  }
}
layer {
  name: "deconv_in_4_3"
  type: "Concat"
  bottom: "Crop9"
  bottom: "Convolution18"
  top: "deconv_in_4_3"
  concat_param {
    axis: 1
  }
}
layer {
  name: "Convolution22"
  type: "Convolution"
  bottom: "deconv_in_4_3"
  top: "Convolution22"
  convolution_param {
    num_output: 64
    bias_term: true
    pad: 1
    kernel_size: 3
    stride: 1
    weight_filler {
      type: "xavier"
    }
    bias_filler {
      type: "xavier"
    }
    dilation: 1
  }
}
layer {
  name: "conv_in_4_3"
  type: "ReLU"
  bottom: "Convolution22"
  top: "Convolution22"
  relu_param {
    negative_slope: 0.2
  }
}
layer {
  name: "Deconvolution10"
  type: "Deconvolution"
  bottom: "Convolution22"
  top: "Deconvolution10"
  convolution_param {
    num_output: 64
    pad: 0
    kernel_size: 3
    stride: 2
  }
}
layer {
  name: "ReLU17"
  type: "ReLU"
  bottom: "Deconvolution10"
  top: "Deconvolution10"
  relu_param {
    negative_slope: 0.2
  }
}
layer {
  name: "DummyData10"
  type: "DummyData"
  top: "DummyData10"
  dummy_data_param {
    shape {
      dim: 1
      dim: 64
      dim: 192
      dim: 192
    }
  }
}
layer {
  name: "Crop10"
  type: "Crop"
  bottom: "Deconvolution10"
  bottom: "DummyData10"
  top: "Crop10"
  crop_param {
    axis: 2
    offset: 0
  }
}
layer {
  name: "deconv_in_4_4"
  type: "Concat"
  bottom: "Crop10"
  bottom: "Convolution19"
  top: "deconv_in_4_4"
  concat_param {
    axis: 1
  }
}
layer {
  name: "Convolution23"
  type: "Convolution"
  bottom: "deconv_in_4_4"
  top: "Convolution23"
  convolution_param {
    num_output: 64
    bias_term: true
    pad: 1
    kernel_size: 3
    stride: 1
    weight_filler {
      type: "xavier"
    }
    bias_filler {
      type: "xavier"
    }
    dilation: 1
  }
}
layer {
  name: "conv_in_4_4"
  type: "ReLU"
  bottom: "Convolution23"
  top: "Convolution23"
  relu_param {
    negative_slope: 0.2
  }
}
layer {
  name: "Deconvolution11"
  type: "Deconvolution"
  bottom: "Eltwise1"
  top: "Deconvolution11"
  convolution_param {
    num_output: 256
    pad: 0
    kernel_size: 3
    stride: 2
  }
}
layer {
  name: "ReLU18"
  type: "ReLU"
  bottom: "Deconvolution11"
  top: "Deconvolution11"
  relu_param {
    negative_slope: 0.2
  }
}
layer {
  name: "DummyData11"
  type: "DummyData"
  top: "DummyData11"
  dummy_data_param {
    shape {
      dim: 1
      dim: 256
      dim: 12
      dim: 12
    }
  }
}
layer {
  name: "Crop11"
  type: "Crop"
  bottom: "Deconvolution11"
  bottom: "DummyData11"
  top: "Crop11"
  crop_param {
    axis: 2
    offset: 0
  }
}
layer {
  name: "deconv1"
  type: "Concat"
  bottom: "Crop11"
  bottom: "Convolution10"
  top: "deconv1"
  concat_param {
    axis: 1
  }
}
layer {
  name: "Convolution24"
  type: "Convolution"
  bottom: "deconv1"
  top: "Convolution24"
  convolution_param {
    num_output: 256
    bias_term: true
    pad: 1
    kernel_size: 3
    stride: 1
    weight_filler {
      type: "xavier"
    }
    bias_filler {
      type: "xavier"
    }
    dilation: 1
  }
}
layer {
  name: "conv6"
  type: "ReLU"
  bottom: "Convolution24"
  top: "Convolution24"
  relu_param {
    negative_slope: 0.2
  }
}
layer {
  name: "Deconvolution12"
  type: "Deconvolution"
  bottom: "Convolution24"
  top: "Deconvolution12"
  convolution_param {
    num_output: 128
    pad: 0
    kernel_size: 3
    stride: 2
  }
}
layer {
  name: "ReLU19"
  type: "ReLU"
  bottom: "Deconvolution12"
  top: "Deconvolution12"
  relu_param {
    negative_slope: 0.2
  }
}
layer {
  name: "DummyData12"
  type: "DummyData"
  top: "DummyData12"
  dummy_data_param {
    shape {
      dim: 1
      dim: 128
      dim: 24
      dim: 24
    }
  }
}
layer {
  name: "Crop12"
  type: "Crop"
  bottom: "Deconvolution12"
  bottom: "DummyData12"
  top: "Crop12"
  crop_param {
    axis: 2
    offset: 0
  }
}
layer {
  name: "deconv2"
  type: "Concat"
  bottom: "Crop12"
  bottom: "Convolution8"
  top: "deconv2"
  concat_param {
    axis: 1
  }
}
layer {
  name: "Convolution25"
  type: "Convolution"
  bottom: "deconv2"
  top: "Convolution25"
  convolution_param {
    num_output: 128
    bias_term: true
    pad: 1
    kernel_size: 3
    stride: 1
    weight_filler {
      type: "xavier"
    }
    bias_filler {
      type: "xavier"
    }
    dilation: 1
  }
}
layer {
  name: "conv7"
  type: "ReLU"
  bottom: "Convolution25"
  top: "Convolution25"
  relu_param {
    negative_slope: 0.2
  }
}
layer {
  name: "Deconvolution13"
  type: "Deconvolution"
  bottom: "Convolution25"
  top: "Deconvolution13"
  convolution_param {
    num_output: 64
    pad: 0
    kernel_size: 3
    stride: 2
  }
}
layer {
  name: "ReLU20"
  type: "ReLU"
  bottom: "Deconvolution13"
  top: "Deconvolution13"
  relu_param {
    negative_slope: 0.2
  }
}
layer {
  name: "DummyData13"
  type: "DummyData"
  top: "DummyData13"
  dummy_data_param {
    shape {
      dim: 1
      dim: 64
      dim: 48
      dim: 48
    }
  }
}
layer {
  name: "Crop13"
  type: "Crop"
  bottom: "Deconvolution13"
  bottom: "DummyData13"
  top: "Crop13"
  crop_param {
    axis: 2
    offset: 0
  }
}
layer {
  name: "deconv3"
  type: "Concat"
  bottom: "Crop13"
  bottom: "Convolution6"
  top: "deconv3"
  concat_param {
    axis: 1
  }
}
layer {
  name: "Convolution26"
  type: "Convolution"
  bottom: "deconv3"
  top: "Convolution26"
  convolution_param {
    num_output: 64
    bias_term: true
    pad: 1
    kernel_size: 3
    stride: 1
    weight_filler {
      type: "xavier"
    }
    bias_filler {
      type: "xavier"
    }
    dilation: 1
  }
}
layer {
  name: "conv8"
  type: "ReLU"
  bottom: "Convolution26"
  top: "Convolution26"
  relu_param {
    negative_slope: 0.2
  }
}
layer {
  name: "Deconvolution14"
  type: "Deconvolution"
  bottom: "Convolution26"
  top: "Deconvolution14"
  convolution_param {
    num_output: 64
    pad: 0
    kernel_size: 3
    stride: 2
  }
}
layer {
  name: "ReLU21"
  type: "ReLU"
  bottom: "Deconvolution14"
  top: "Deconvolution14"
  relu_param {
    negative_slope: 0.2
  }
}
layer {
  name: "DummyData14"
  type: "DummyData"
  top: "DummyData14"
  dummy_data_param {
    shape {
      dim: 1
      dim: 64
      dim: 96
      dim: 96
    }
  }
}
layer {
  name: "Crop14"
  type: "Crop"
  bottom: "Deconvolution14"
  bottom: "DummyData14"
  top: "Crop14"
  crop_param {
    axis: 2
    offset: 0
  }
}
layer {
  name: "deconv4"
  type: "Concat"
  bottom: "Crop14"
  bottom: "Convolution4"
  top: "deconv4"
  concat_param {
    axis: 1
  }
}
layer {
  name: "Convolution27"
  type: "Convolution"
  bottom: "deconv4"
  top: "Convolution27"
  convolution_param {
    num_output: 64
    bias_term: true
    pad: 1
    kernel_size: 3
    stride: 1
    weight_filler {
      type: "xavier"
    }
    bias_filler {
      type: "xavier"
    }
    dilation: 1
  }
}
layer {
  name: "conv9"
  type: "ReLU"
  bottom: "Convolution27"
  top: "Convolution27"
  relu_param {
    negative_slope: 0.2
  }
}
layer {
  name: "Deconvolution15"
  type: "Deconvolution"
  bottom: "Convolution27"
  top: "Deconvolution15"
  convolution_param {
    num_output: 64
    pad: 0
    kernel_size: 3
    stride: 2
  }
}
layer {
  name: "ReLU22"
  type: "ReLU"
  bottom: "Deconvolution15"
  top: "Deconvolution15"
  relu_param {
    negative_slope: 0.2
  }
}
layer {
  name: "DummyData15"
  type: "DummyData"
  top: "DummyData15"
  dummy_data_param {
    shape {
      dim: 1
      dim: 64
      dim: 192
      dim: 192
    }
  }
}
layer {
  name: "Crop15"
  type: "Crop"
  bottom: "Deconvolution15"
  bottom: "DummyData15"
  top: "Crop15"
  crop_param {
    axis: 2
    offset: 0
  }
}
layer {
  name: "deconv5"
  type: "Concat"
  bottom: "Crop15"
  bottom: "Convolution2"
  top: "deconv5"
  concat_param {
    axis: 1
  }
}
layer {
  name: "Convolution28"
  type: "Convolution"
  bottom: "deconv5"
  top: "Convolution28"
  convolution_param {
    num_output: 64
    bias_term: true
    pad: 1
    kernel_size: 3
    stride: 1
    weight_filler {
      type: "xavier"
    }
    bias_filler {
      type: "xavier"
    }
    dilation: 1
  }
}
layer {
  name: "conv10"
  type: "ReLU"
  bottom: "Convolution28"
  top: "Convolution28"
  relu_param {
    negative_slope: 0.2
  }
}
layer {
  name: "conc_tot"
  type: "Concat"
  bottom: "Convolution28"
  bottom: "Convolution23"
  bottom: "Convolution19"
  bottom: "Convolution16"
  bottom: "Convolution14"
  top: "conc_tot"
  concat_param {
    axis: 1
  }
}
layer {
  name: "flow"
  type: "Convolution"
  bottom: "conc_tot"
  top: "flow25"
  convolution_param {
    num_output: 50
    bias_term: true
    pad: 1
    kernel_size: 3
    stride: 1
    weight_filler {
      type: "xavier"
    }
    bias_filler {
      type: "xavier"
    }
    dilation: 1
  }
}
layer {
  name: "Python1"
  type: "Python"
  bottom: "input"
  top: "Python1"
  python_param {
    module: "input_shifting_layer"
    layer: "InputShiftingLayer"
    param_str: "{\"tx\": -1.6, \"ty\": -1.6}"
  }
}
layer {
  name: "Python2"
  type: "Python"
  bottom: "input"
  top: "Python2"
  python_param {
    module: "input_shifting_layer"
    layer: "InputShiftingLayer"
    param_str: "{\"tx\": -1.6, \"ty\": -0.8}"
  }
}
layer {
  name: "Concat1"
  type: "Concat"
  bottom: "Python1"
  bottom: "Python2"
  top: "Concat1"
  concat_param {
    axis: 1
  }
}
layer {
  name: "Python3"
  type: "Python"
  bottom: "input"
  top: "Python3"
  python_param {
    module: "input_shifting_layer"
    layer: "InputShiftingLayer"
    param_str: "{\"tx\": -1.6, \"ty\": 0}"
  }
}
layer {
  name: "Concat2"
  type: "Concat"
  bottom: "Concat1"
  bottom: "Python3"
  top: "Concat2"
  concat_param {
    axis: 1
  }
}
layer {
  name: "Python4"
  type: "Python"
  bottom: "input"
  top: "Python4"
  python_param {
    module: "input_shifting_layer"
    layer: "InputShiftingLayer"
    param_str: "{\"tx\": -1.6, \"ty\": 0.8}"
  }
}
layer {
  name: "Concat3"
  type: "Concat"
  bottom: "Concat2"
  bottom: "Python4"
  top: "Concat3"
  concat_param {
    axis: 1
  }
}
layer {
  name: "Python5"
  type: "Python"
  bottom: "input"
  top: "Python5"
  python_param {
    module: "input_shifting_layer"
    layer: "InputShiftingLayer"
    param_str: "{\"tx\": -1.6, \"ty\": 1.6}"
  }
}
layer {
  name: "Concat4"
  type: "Concat"
  bottom: "Concat3"
  bottom: "Python5"
  top: "Concat4"
  concat_param {
    axis: 1
  }
}
layer {
  name: "Python6"
  type: "Python"
  bottom: "input"
  top: "Python6"
  python_param {
    module: "input_shifting_layer"
    layer: "InputShiftingLayer"
    param_str: "{\"tx\": -0.8, \"ty\": -1.6}"
  }
}
layer {
  name: "Concat5"
  type: "Concat"
  bottom: "Concat4"
  bottom: "Python6"
  top: "Concat5"
  concat_param {
    axis: 1
  }
}
layer {
  name: "Python7"
  type: "Python"
  bottom: "input"
  top: "Python7"
  python_param {
    module: "input_shifting_layer"
    layer: "InputShiftingLayer"
    param_str: "{\"tx\": -0.8, \"ty\": -0.8}"
  }
}
layer {
  name: "Concat6"
  type: "Concat"
  bottom: "Concat5"
  bottom: "Python7"
  top: "Concat6"
  concat_param {
    axis: 1
  }
}
layer {
  name: "Python8"
  type: "Python"
  bottom: "input"
  top: "Python8"
  python_param {
    module: "input_shifting_layer"
    layer: "InputShiftingLayer"
    param_str: "{\"tx\": -0.8, \"ty\": 0}"
  }
}
layer {
  name: "Concat7"
  type: "Concat"
  bottom: "Concat6"
  bottom: "Python8"
  top: "Concat7"
  concat_param {
    axis: 1
  }
}
layer {
  name: "Python9"
  type: "Python"
  bottom: "input"
  top: "Python9"
  python_param {
    module: "input_shifting_layer"
    layer: "InputShiftingLayer"
    param_str: "{\"tx\": -0.8, \"ty\": 0.8}"
  }
}
layer {
  name: "Concat8"
  type: "Concat"
  bottom: "Concat7"
  bottom: "Python9"
  top: "Concat8"
  concat_param {
    axis: 1
  }
}
layer {
  name: "Python10"
  type: "Python"
  bottom: "input"
  top: "Python10"
  python_param {
    module: "input_shifting_layer"
    layer: "InputShiftingLayer"
    param_str: "{\"tx\": -0.8, \"ty\": 1.6}"
  }
}
layer {
  name: "Concat9"
  type: "Concat"
  bottom: "Concat8"
  bottom: "Python10"
  top: "Concat9"
  concat_param {
    axis: 1
  }
}
layer {
  name: "Python11"
  type: "Python"
  bottom: "input"
  top: "Python11"
  python_param {
    module: "input_shifting_layer"
    layer: "InputShiftingLayer"
    param_str: "{\"tx\": 0, \"ty\": -1.6}"
  }
}
layer {
  name: "Concat10"
  type: "Concat"
  bottom: "Concat9"
  bottom: "Python11"
  top: "Concat10"
  concat_param {
    axis: 1
  }
}
layer {
  name: "Python12"
  type: "Python"
  bottom: "input"
  top: "Python12"
  python_param {
    module: "input_shifting_layer"
    layer: "InputShiftingLayer"
    param_str: "{\"tx\": 0, \"ty\": -0.8}"
  }
}
layer {
  name: "Concat11"
  type: "Concat"
  bottom: "Concat10"
  bottom: "Python12"
  top: "Concat11"
  concat_param {
    axis: 1
  }
}
layer {
  name: "Python13"
  type: "Python"
  bottom: "input"
  top: "Python13"
  python_param {
    module: "input_shifting_layer"
    layer: "InputShiftingLayer"
    param_str: "{\"tx\": 0, \"ty\": 0}"
  }
}
layer {
  name: "Concat12"
  type: "Concat"
  bottom: "Concat11"
  bottom: "Python13"
  top: "Concat12"
  concat_param {
    axis: 1
  }
}
layer {
  name: "Python14"
  type: "Python"
  bottom: "input"
  top: "Python14"
  python_param {
    module: "input_shifting_layer"
    layer: "InputShiftingLayer"
    param_str: "{\"tx\": 0, \"ty\": 0.8}"
  }
}
layer {
  name: "Concat13"
  type: "Concat"
  bottom: "Concat12"
  bottom: "Python14"
  top: "Concat13"
  concat_param {
    axis: 1
  }
}
layer {
  name: "Python15"
  type: "Python"
  bottom: "input"
  top: "Python15"
  python_param {
    module: "input_shifting_layer"
    layer: "InputShiftingLayer"
    param_str: "{\"tx\": 0, \"ty\": 1.6}"
  }
}
layer {
  name: "Concat14"
  type: "Concat"
  bottom: "Concat13"
  bottom: "Python15"
  top: "Concat14"
  concat_param {
    axis: 1
  }
}
layer {
  name: "Python16"
  type: "Python"
  bottom: "input"
  top: "Python16"
  python_param {
    module: "input_shifting_layer"
    layer: "InputShiftingLayer"
    param_str: "{\"tx\": 0.8, \"ty\": -1.6}"
  }
}
layer {
  name: "Concat15"
  type: "Concat"
  bottom: "Concat14"
  bottom: "Python16"
  top: "Concat15"
  concat_param {
    axis: 1
  }
}
layer {
  name: "Python17"
  type: "Python"
  bottom: "input"
  top: "Python17"
  python_param {
    module: "input_shifting_layer"
    layer: "InputShiftingLayer"
    param_str: "{\"tx\": 0.8, \"ty\": -0.8}"
  }
}
layer {
  name: "Concat16"
  type: "Concat"
  bottom: "Concat15"
  bottom: "Python17"
  top: "Concat16"
  concat_param {
    axis: 1
  }
}
layer {
  name: "Python18"
  type: "Python"
  bottom: "input"
  top: "Python18"
  python_param {
    module: "input_shifting_layer"
    layer: "InputShiftingLayer"
    param_str: "{\"tx\": 0.8, \"ty\": 0}"
  }
}
layer {
  name: "Concat17"
  type: "Concat"
  bottom: "Concat16"
  bottom: "Python18"
  top: "Concat17"
  concat_param {
    axis: 1
  }
}
layer {
  name: "Python19"
  type: "Python"
  bottom: "input"
  top: "Python19"
  python_param {
    module: "input_shifting_layer"
    layer: "InputShiftingLayer"
    param_str: "{\"tx\": 0.8, \"ty\": 0.8}"
  }
}
layer {
  name: "Concat18"
  type: "Concat"
  bottom: "Concat17"
  bottom: "Python19"
  top: "Concat18"
  concat_param {
    axis: 1
  }
}
layer {
  name: "Python20"
  type: "Python"
  bottom: "input"
  top: "Python20"
  python_param {
    module: "input_shifting_layer"
    layer: "InputShiftingLayer"
    param_str: "{\"tx\": 0.8, \"ty\": 1.6}"
  }
}
layer {
  name: "Concat19"
  type: "Concat"
  bottom: "Concat18"
  bottom: "Python20"
  top: "Concat19"
  concat_param {
    axis: 1
  }
}
layer {
  name: "Python21"
  type: "Python"
  bottom: "input"
  top: "Python21"
  python_param {
    module: "input_shifting_layer"
    layer: "InputShiftingLayer"
    param_str: "{\"tx\": 1.6, \"ty\": -1.6}"
  }
}
layer {
  name: "Concat20"
  type: "Concat"
  bottom: "Concat19"
  bottom: "Python21"
  top: "Concat20"
  concat_param {
    axis: 1
  }
}
layer {
  name: "Python22"
  type: "Python"
  bottom: "input"
  top: "Python22"
  python_param {
    module: "input_shifting_layer"
    layer: "InputShiftingLayer"
    param_str: "{\"tx\": 1.6, \"ty\": -0.8}"
  }
}
layer {
  name: "Concat21"
  type: "Concat"
  bottom: "Concat20"
  bottom: "Python22"
  top: "Concat21"
  concat_param {
    axis: 1
  }
}
layer {
  name: "Python23"
  type: "Python"
  bottom: "input"
  top: "Python23"
  python_param {
    module: "input_shifting_layer"
    layer: "InputShiftingLayer"
    param_str: "{\"tx\": 1.6, \"ty\": 0}"
  }
}
layer {
  name: "Concat22"
  type: "Concat"
  bottom: "Concat21"
  bottom: "Python23"
  top: "Concat22"
  concat_param {
    axis: 1
  }
}
layer {
  name: "Python24"
  type: "Python"
  bottom: "input"
  top: "Python24"
  python_param {
    module: "input_shifting_layer"
    layer: "InputShiftingLayer"
    param_str: "{\"tx\": 1.6, \"ty\": 0.8}"
  }
}
layer {
  name: "Concat23"
  type: "Concat"
  bottom: "Concat22"
  bottom: "Python24"
  top: "Concat23"
  concat_param {
    axis: 1
  }
}
layer {
  name: "Python25"
  type: "Python"
  bottom: "input"
  top: "Python25"
  python_param {
    module: "input_shifting_layer"
    layer: "InputShiftingLayer"
    param_str: "{\"tx\": 1.6, \"ty\": 1.6}"
  }
}
layer {
  name: "shift"
  type: "Concat"
  bottom: "Concat23"
  bottom: "Python25"
  top: "shift"
  concat_param {
    axis: 1
  }
}
layer {
  name: "flow_h"
  type: "Slice"
  bottom: "flow25"
  top: "flow_h"
  top: "flow_v"
  slice_param {
    slice_dim: 1
    slice_point: 25
  }
}
layer {
  name: "Slice1"
  type: "Slice"
  bottom: "shift"
  top: "Slice1"
  top: "Slice2"
  slice_param {
    slice_dim: 1
    slice_point: 1
  }
}
layer {
  name: "Slice3"
  type: "Slice"
  bottom: "flow_h"
  top: "Slice3"
  top: "Slice4"
  slice_param {
    slice_dim: 1
    slice_point: 1
  }
}
layer {
  name: "Slice5"
  type: "Slice"
  bottom: "flow_v"
  top: "Slice5"
  top: "Slice6"
  slice_param {
    slice_dim: 1
    slice_point: 1
  }
}
layer {
  name: "Warping1"
  type: "Warping"
  bottom: "Slice1"
  bottom: "Slice3"
  bottom: "Slice5"
  top: "Warping1"
}
layer {
  name: "Slice7"
  type: "Slice"
  bottom: "Slice2"
  top: "Slice7"
  top: "Slice8"
  slice_param {
    slice_dim: 1
    slice_point: 1
  }
}
layer {
  name: "Slice9"
  type: "Slice"
  bottom: "Slice4"
  top: "Slice9"
  top: "Slice10"
  slice_param {
    slice_dim: 1
    slice_point: 1
  }
}
layer {
  name: "Slice11"
  type: "Slice"
  bottom: "Slice6"
  top: "Slice11"
  top: "Slice12"
  slice_param {
    slice_dim: 1
    slice_point: 1
  }
}
layer {
  name: "Warping2"
  type: "Warping"
  bottom: "Slice7"
  bottom: "Slice9"
  bottom: "Slice11"
  top: "Warping2"
}
layer {
  name: "Concat24"
  type: "Concat"
  bottom: "Warping1"
  bottom: "Warping2"
  top: "Concat24"
  concat_param {
    axis: 1
  }
}
layer {
  name: "Slice13"
  type: "Slice"
  bottom: "Slice8"
  top: "Slice13"
  top: "Slice14"
  slice_param {
    slice_dim: 1
    slice_point: 1
  }
}
layer {
  name: "Slice15"
  type: "Slice"
  bottom: "Slice10"
  top: "Slice15"
  top: "Slice16"
  slice_param {
    slice_dim: 1
    slice_point: 1
  }
}
layer {
  name: "Slice17"
  type: "Slice"
  bottom: "Slice12"
  top: "Slice17"
  top: "Slice18"
  slice_param {
    slice_dim: 1
    slice_point: 1
  }
}
layer {
  name: "Warping3"
  type: "Warping"
  bottom: "Slice13"
  bottom: "Slice15"
  bottom: "Slice17"
  top: "Warping3"
}
layer {
  name: "Concat25"
  type: "Concat"
  bottom: "Concat24"
  bottom: "Warping3"
  top: "Concat25"
  concat_param {
    axis: 1
  }
}
layer {
  name: "Slice19"
  type: "Slice"
  bottom: "Slice14"
  top: "Slice19"
  top: "Slice20"
  slice_param {
    slice_dim: 1
    slice_point: 1
  }
}
layer {
  name: "Slice21"
  type: "Slice"
  bottom: "Slice16"
  top: "Slice21"
  top: "Slice22"
  slice_param {
    slice_dim: 1
    slice_point: 1
  }
}
layer {
  name: "Slice23"
  type: "Slice"
  bottom: "Slice18"
  top: "Slice23"
  top: "Slice24"
  slice_param {
    slice_dim: 1
    slice_point: 1
  }
}
layer {
  name: "Warping4"
  type: "Warping"
  bottom: "Slice19"
  bottom: "Slice21"
  bottom: "Slice23"
  top: "Warping4"
}
layer {
  name: "Concat26"
  type: "Concat"
  bottom: "Concat25"
  bottom: "Warping4"
  top: "Concat26"
  concat_param {
    axis: 1
  }
}
layer {
  name: "Slice25"
  type: "Slice"
  bottom: "Slice20"
  top: "Slice25"
  top: "Slice26"
  slice_param {
    slice_dim: 1
    slice_point: 1
  }
}
layer {
  name: "Slice27"
  type: "Slice"
  bottom: "Slice22"
  top: "Slice27"
  top: "Slice28"
  slice_param {
    slice_dim: 1
    slice_point: 1
  }
}
layer {
  name: "Slice29"
  type: "Slice"
  bottom: "Slice24"
  top: "Slice29"
  top: "Slice30"
  slice_param {
    slice_dim: 1
    slice_point: 1
  }
}
layer {
  name: "Warping5"
  type: "Warping"
  bottom: "Slice25"
  bottom: "Slice27"
  bottom: "Slice29"
  top: "Warping5"
}
layer {
  name: "Concat27"
  type: "Concat"
  bottom: "Concat26"
  bottom: "Warping5"
  top: "Concat27"
  concat_param {
    axis: 1
  }
}
layer {
  name: "Slice31"
  type: "Slice"
  bottom: "Slice26"
  top: "Slice31"
  top: "Slice32"
  slice_param {
    slice_dim: 1
    slice_point: 1
  }
}
layer {
  name: "Slice33"
  type: "Slice"
  bottom: "Slice28"
  top: "Slice33"
  top: "Slice34"
  slice_param {
    slice_dim: 1
    slice_point: 1
  }
}
layer {
  name: "Slice35"
  type: "Slice"
  bottom: "Slice30"
  top: "Slice35"
  top: "Slice36"
  slice_param {
    slice_dim: 1
    slice_point: 1
  }
}
layer {
  name: "Warping6"
  type: "Warping"
  bottom: "Slice31"
  bottom: "Slice33"
  bottom: "Slice35"
  top: "Warping6"
}
layer {
  name: "Concat28"
  type: "Concat"
  bottom: "Concat27"
  bottom: "Warping6"
  top: "Concat28"
  concat_param {
    axis: 1
  }
}
layer {
  name: "Slice37"
  type: "Slice"
  bottom: "Slice32"
  top: "Slice37"
  top: "Slice38"
  slice_param {
    slice_dim: 1
    slice_point: 1
  }
}
layer {
  name: "Slice39"
  type: "Slice"
  bottom: "Slice34"
  top: "Slice39"
  top: "Slice40"
  slice_param {
    slice_dim: 1
    slice_point: 1
  }
}
layer {
  name: "Slice41"
  type: "Slice"
  bottom: "Slice36"
  top: "Slice41"
  top: "Slice42"
  slice_param {
    slice_dim: 1
    slice_point: 1
  }
}
layer {
  name: "Warping7"
  type: "Warping"
  bottom: "Slice37"
  bottom: "Slice39"
  bottom: "Slice41"
  top: "Warping7"
}
layer {
  name: "Concat29"
  type: "Concat"
  bottom: "Concat28"
  bottom: "Warping7"
  top: "Concat29"
  concat_param {
    axis: 1
  }
}
layer {
  name: "Slice43"
  type: "Slice"
  bottom: "Slice38"
  top: "Slice43"
  top: "Slice44"
  slice_param {
    slice_dim: 1
    slice_point: 1
  }
}
layer {
  name: "Slice45"
  type: "Slice"
  bottom: "Slice40"
  top: "Slice45"
  top: "Slice46"
  slice_param {
    slice_dim: 1
    slice_point: 1
  }
}
layer {
  name: "Slice47"
  type: "Slice"
  bottom: "Slice42"
  top: "Slice47"
  top: "Slice48"
  slice_param {
    slice_dim: 1
    slice_point: 1
  }
}
layer {
  name: "Warping8"
  type: "Warping"
  bottom: "Slice43"
  bottom: "Slice45"
  bottom: "Slice47"
  top: "Warping8"
}
layer {
  name: "Concat30"
  type: "Concat"
  bottom: "Concat29"
  bottom: "Warping8"
  top: "Concat30"
  concat_param {
    axis: 1
  }
}
layer {
  name: "Slice49"
  type: "Slice"
  bottom: "Slice44"
  top: "Slice49"
  top: "Slice50"
  slice_param {
    slice_dim: 1
    slice_point: 1
  }
}
layer {
  name: "Slice51"
  type: "Slice"
  bottom: "Slice46"
  top: "Slice51"
  top: "Slice52"
  slice_param {
    slice_dim: 1
    slice_point: 1
  }
}
layer {
  name: "Slice53"
  type: "Slice"
  bottom: "Slice48"
  top: "Slice53"
  top: "Slice54"
  slice_param {
    slice_dim: 1
    slice_point: 1
  }
}
layer {
  name: "Warping9"
  type: "Warping"
  bottom: "Slice49"
  bottom: "Slice51"
  bottom: "Slice53"
  top: "Warping9"
}
layer {
  name: "Concat31"
  type: "Concat"
  bottom: "Concat30"
  bottom: "Warping9"
  top: "Concat31"
  concat_param {
    axis: 1
  }
}
layer {
  name: "Slice55"
  type: "Slice"
  bottom: "Slice50"
  top: "Slice55"
  top: "Slice56"
  slice_param {
    slice_dim: 1
    slice_point: 1
  }
}
layer {
  name: "Slice57"
  type: "Slice"
  bottom: "Slice52"
  top: "Slice57"
  top: "Slice58"
  slice_param {
    slice_dim: 1
    slice_point: 1
  }
}
layer {
  name: "Slice59"
  type: "Slice"
  bottom: "Slice54"
  top: "Slice59"
  top: "Slice60"
  slice_param {
    slice_dim: 1
    slice_point: 1
  }
}
layer {
  name: "Warping10"
  type: "Warping"
  bottom: "Slice55"
  bottom: "Slice57"
  bottom: "Slice59"
  top: "Warping10"
}
layer {
  name: "Concat32"
  type: "Concat"
  bottom: "Concat31"
  bottom: "Warping10"
  top: "Concat32"
  concat_param {
    axis: 1
  }
}
layer {
  name: "Slice61"
  type: "Slice"
  bottom: "Slice56"
  top: "Slice61"
  top: "Slice62"
  slice_param {
    slice_dim: 1
    slice_point: 1
  }
}
layer {
  name: "Slice63"
  type: "Slice"
  bottom: "Slice58"
  top: "Slice63"
  top: "Slice64"
  slice_param {
    slice_dim: 1
    slice_point: 1
  }
}
layer {
  name: "Slice65"
  type: "Slice"
  bottom: "Slice60"
  top: "Slice65"
  top: "Slice66"
  slice_param {
    slice_dim: 1
    slice_point: 1
  }
}
layer {
  name: "Warping11"
  type: "Warping"
  bottom: "Slice61"
  bottom: "Slice63"
  bottom: "Slice65"
  top: "Warping11"
}
layer {
  name: "Concat33"
  type: "Concat"
  bottom: "Concat32"
  bottom: "Warping11"
  top: "Concat33"
  concat_param {
    axis: 1
  }
}
layer {
  name: "Slice67"
  type: "Slice"
  bottom: "Slice62"
  top: "Slice67"
  top: "Slice68"
  slice_param {
    slice_dim: 1
    slice_point: 1
  }
}
layer {
  name: "Slice69"
  type: "Slice"
  bottom: "Slice64"
  top: "Slice69"
  top: "Slice70"
  slice_param {
    slice_dim: 1
    slice_point: 1
  }
}
layer {
  name: "Slice71"
  type: "Slice"
  bottom: "Slice66"
  top: "Slice71"
  top: "Slice72"
  slice_param {
    slice_dim: 1
    slice_point: 1
  }
}
layer {
  name: "Warping12"
  type: "Warping"
  bottom: "Slice67"
  bottom: "Slice69"
  bottom: "Slice71"
  top: "Warping12"
}
layer {
  name: "Concat34"
  type: "Concat"
  bottom: "Concat33"
  bottom: "Warping12"
  top: "Concat34"
  concat_param {
    axis: 1
  }
}
layer {
  name: "Slice73"
  type: "Slice"
  bottom: "Slice68"
  top: "Slice73"
  top: "Slice74"
  slice_param {
    slice_dim: 1
    slice_point: 1
  }
}
layer {
  name: "Slice75"
  type: "Slice"
  bottom: "Slice70"
  top: "Slice75"
  top: "Slice76"
  slice_param {
    slice_dim: 1
    slice_point: 1
  }
}
layer {
  name: "Slice77"
  type: "Slice"
  bottom: "Slice72"
  top: "Slice77"
  top: "Slice78"
  slice_param {
    slice_dim: 1
    slice_point: 1
  }
}
layer {
  name: "Warping13"
  type: "Warping"
  bottom: "Slice73"
  bottom: "Slice75"
  bottom: "Slice77"
  top: "Warping13"
}
layer {
  name: "Concat35"
  type: "Concat"
  bottom: "Concat34"
  bottom: "Warping13"
  top: "Concat35"
  concat_param {
    axis: 1
  }
}
layer {
  name: "Slice79"
  type: "Slice"
  bottom: "Slice74"
  top: "Slice79"
  top: "Slice80"
  slice_param {
    slice_dim: 1
    slice_point: 1
  }
}
layer {
  name: "Slice81"
  type: "Slice"
  bottom: "Slice76"
  top: "Slice81"
  top: "Slice82"
  slice_param {
    slice_dim: 1
    slice_point: 1
  }
}
layer {
  name: "Slice83"
  type: "Slice"
  bottom: "Slice78"
  top: "Slice83"
  top: "Slice84"
  slice_param {
    slice_dim: 1
    slice_point: 1
  }
}
layer {
  name: "Warping14"
  type: "Warping"
  bottom: "Slice79"
  bottom: "Slice81"
  bottom: "Slice83"
  top: "Warping14"
}
layer {
  name: "Concat36"
  type: "Concat"
  bottom: "Concat35"
  bottom: "Warping14"
  top: "Concat36"
  concat_param {
    axis: 1
  }
}
layer {
  name: "Slice85"
  type: "Slice"
  bottom: "Slice80"
  top: "Slice85"
  top: "Slice86"
  slice_param {
    slice_dim: 1
    slice_point: 1
  }
}
layer {
  name: "Slice87"
  type: "Slice"
  bottom: "Slice82"
  top: "Slice87"
  top: "Slice88"
  slice_param {
    slice_dim: 1
    slice_point: 1
  }
}
layer {
  name: "Slice89"
  type: "Slice"
  bottom: "Slice84"
  top: "Slice89"
  top: "Slice90"
  slice_param {
    slice_dim: 1
    slice_point: 1
  }
}
layer {
  name: "Warping15"
  type: "Warping"
  bottom: "Slice85"
  bottom: "Slice87"
  bottom: "Slice89"
  top: "Warping15"
}
layer {
  name: "Concat37"
  type: "Concat"
  bottom: "Concat36"
  bottom: "Warping15"
  top: "Concat37"
  concat_param {
    axis: 1
  }
}
layer {
  name: "Slice91"
  type: "Slice"
  bottom: "Slice86"
  top: "Slice91"
  top: "Slice92"
  slice_param {
    slice_dim: 1
    slice_point: 1
  }
}
layer {
  name: "Slice93"
  type: "Slice"
  bottom: "Slice88"
  top: "Slice93"
  top: "Slice94"
  slice_param {
    slice_dim: 1
    slice_point: 1
  }
}
layer {
  name: "Slice95"
  type: "Slice"
  bottom: "Slice90"
  top: "Slice95"
  top: "Slice96"
  slice_param {
    slice_dim: 1
    slice_point: 1
  }
}
layer {
  name: "Warping16"
  type: "Warping"
  bottom: "Slice91"
  bottom: "Slice93"
  bottom: "Slice95"
  top: "Warping16"
}
layer {
  name: "Concat38"
  type: "Concat"
  bottom: "Concat37"
  bottom: "Warping16"
  top: "Concat38"
  concat_param {
    axis: 1
  }
}
layer {
  name: "Slice97"
  type: "Slice"
  bottom: "Slice92"
  top: "Slice97"
  top: "Slice98"
  slice_param {
    slice_dim: 1
    slice_point: 1
  }
}
layer {
  name: "Slice99"
  type: "Slice"
  bottom: "Slice94"
  top: "Slice99"
  top: "Slice100"
  slice_param {
    slice_dim: 1
    slice_point: 1
  }
}
layer {
  name: "Slice101"
  type: "Slice"
  bottom: "Slice96"
  top: "Slice101"
  top: "Slice102"
  slice_param {
    slice_dim: 1
    slice_point: 1
  }
}
layer {
  name: "Warping17"
  type: "Warping"
  bottom: "Slice97"
  bottom: "Slice99"
  bottom: "Slice101"
  top: "Warping17"
}
layer {
  name: "Concat39"
  type: "Concat"
  bottom: "Concat38"
  bottom: "Warping17"
  top: "Concat39"
  concat_param {
    axis: 1
  }
}
layer {
  name: "Slice103"
  type: "Slice"
  bottom: "Slice98"
  top: "Slice103"
  top: "Slice104"
  slice_param {
    slice_dim: 1
    slice_point: 1
  }
}
layer {
  name: "Slice105"
  type: "Slice"
  bottom: "Slice100"
  top: "Slice105"
  top: "Slice106"
  slice_param {
    slice_dim: 1
    slice_point: 1
  }
}
layer {
  name: "Slice107"
  type: "Slice"
  bottom: "Slice102"
  top: "Slice107"
  top: "Slice108"
  slice_param {
    slice_dim: 1
    slice_point: 1
  }
}
layer {
  name: "Warping18"
  type: "Warping"
  bottom: "Slice103"
  bottom: "Slice105"
  bottom: "Slice107"
  top: "Warping18"
}
layer {
  name: "Concat40"
  type: "Concat"
  bottom: "Concat39"
  bottom: "Warping18"
  top: "Concat40"
  concat_param {
    axis: 1
  }
}
layer {
  name: "Slice109"
  type: "Slice"
  bottom: "Slice104"
  top: "Slice109"
  top: "Slice110"
  slice_param {
    slice_dim: 1
    slice_point: 1
  }
}
layer {
  name: "Slice111"
  type: "Slice"
  bottom: "Slice106"
  top: "Slice111"
  top: "Slice112"
  slice_param {
    slice_dim: 1
    slice_point: 1
  }
}
layer {
  name: "Slice113"
  type: "Slice"
  bottom: "Slice108"
  top: "Slice113"
  top: "Slice114"
  slice_param {
    slice_dim: 1
    slice_point: 1
  }
}
layer {
  name: "Warping19"
  type: "Warping"
  bottom: "Slice109"
  bottom: "Slice111"
  bottom: "Slice113"
  top: "Warping19"
}
layer {
  name: "Concat41"
  type: "Concat"
  bottom: "Concat40"
  bottom: "Warping19"
  top: "Concat41"
  concat_param {
    axis: 1
  }
}
layer {
  name: "Slice115"
  type: "Slice"
  bottom: "Slice110"
  top: "Slice115"
  top: "Slice116"
  slice_param {
    slice_dim: 1
    slice_point: 1
  }
}
layer {
  name: "Slice117"
  type: "Slice"
  bottom: "Slice112"
  top: "Slice117"
  top: "Slice118"
  slice_param {
    slice_dim: 1
    slice_point: 1
  }
}
layer {
  name: "Slice119"
  type: "Slice"
  bottom: "Slice114"
  top: "Slice119"
  top: "Slice120"
  slice_param {
    slice_dim: 1
    slice_point: 1
  }
}
layer {
  name: "Warping20"
  type: "Warping"
  bottom: "Slice115"
  bottom: "Slice117"
  bottom: "Slice119"
  top: "Warping20"
}
layer {
  name: "Concat42"
  type: "Concat"
  bottom: "Concat41"
  bottom: "Warping20"
  top: "Concat42"
  concat_param {
    axis: 1
  }
}
layer {
  name: "Slice121"
  type: "Slice"
  bottom: "Slice116"
  top: "Slice121"
  top: "Slice122"
  slice_param {
    slice_dim: 1
    slice_point: 1
  }
}
layer {
  name: "Slice123"
  type: "Slice"
  bottom: "Slice118"
  top: "Slice123"
  top: "Slice124"
  slice_param {
    slice_dim: 1
    slice_point: 1
  }
}
layer {
  name: "Slice125"
  type: "Slice"
  bottom: "Slice120"
  top: "Slice125"
  top: "Slice126"
  slice_param {
    slice_dim: 1
    slice_point: 1
  }
}
layer {
  name: "Warping21"
  type: "Warping"
  bottom: "Slice121"
  bottom: "Slice123"
  bottom: "Slice125"
  top: "Warping21"
}
layer {
  name: "Concat43"
  type: "Concat"
  bottom: "Concat42"
  bottom: "Warping21"
  top: "Concat43"
  concat_param {
    axis: 1
  }
}
layer {
  name: "Slice127"
  type: "Slice"
  bottom: "Slice122"
  top: "Slice127"
  top: "Slice128"
  slice_param {
    slice_dim: 1
    slice_point: 1
  }
}
layer {
  name: "Slice129"
  type: "Slice"
  bottom: "Slice124"
  top: "Slice129"
  top: "Slice130"
  slice_param {
    slice_dim: 1
    slice_point: 1
  }
}
layer {
  name: "Slice131"
  type: "Slice"
  bottom: "Slice126"
  top: "Slice131"
  top: "Slice132"
  slice_param {
    slice_dim: 1
    slice_point: 1
  }
}
layer {
  name: "Warping22"
  type: "Warping"
  bottom: "Slice127"
  bottom: "Slice129"
  bottom: "Slice131"
  top: "Warping22"
}
layer {
  name: "Concat44"
  type: "Concat"
  bottom: "Concat43"
  bottom: "Warping22"
  top: "Concat44"
  concat_param {
    axis: 1
  }
}
layer {
  name: "Slice133"
  type: "Slice"
  bottom: "Slice128"
  top: "Slice133"
  top: "Slice134"
  slice_param {
    slice_dim: 1
    slice_point: 1
  }
}
layer {
  name: "Slice135"
  type: "Slice"
  bottom: "Slice130"
  top: "Slice135"
  top: "Slice136"
  slice_param {
    slice_dim: 1
    slice_point: 1
  }
}
layer {
  name: "Slice137"
  type: "Slice"
  bottom: "Slice132"
  top: "Slice137"
  top: "Slice138"
  slice_param {
    slice_dim: 1
    slice_point: 1
  }
}
layer {
  name: "Warping23"
  type: "Warping"
  bottom: "Slice133"
  bottom: "Slice135"
  bottom: "Slice137"
  top: "Warping23"
}
layer {
  name: "Concat45"
  type: "Concat"
  bottom: "Concat44"
  bottom: "Warping23"
  top: "Concat45"
  concat_param {
    axis: 1
  }
}
layer {
  name: "Slice139"
  type: "Slice"
  bottom: "Slice134"
  top: "Slice139"
  top: "Slice140"
  slice_param {
    slice_dim: 1
    slice_point: 1
  }
}
layer {
  name: "Slice141"
  type: "Slice"
  bottom: "Slice136"
  top: "Slice141"
  top: "Slice142"
  slice_param {
    slice_dim: 1
    slice_point: 1
  }
}
layer {
  name: "Slice143"
  type: "Slice"
  bottom: "Slice138"
  top: "Slice143"
  top: "Slice144"
  slice_param {
    slice_dim: 1
    slice_point: 1
  }
}
layer {
  name: "Warping24"
  type: "Warping"
  bottom: "Slice139"
  bottom: "Slice141"
  bottom: "Slice143"
  top: "Warping24"
}
layer {
  name: "Concat46"
  type: "Concat"
  bottom: "Concat45"
  bottom: "Warping24"
  top: "Concat46"
  concat_param {
    axis: 1
  }
}
layer {
  name: "Warping25"
  type: "Warping"
  bottom: "Slice140"
  bottom: "Slice142"
  bottom: "Slice144"
  top: "Warping25"
}
layer {
  name: "predict"
  type: "Concat"
  bottom: "Concat46"
  bottom: "Warping25"
  top: "predict"
  concat_param {
    axis: 1
  }
}
layer {
  name: "ImageData1"
  type: "ImageData"
  top: "ImageData1"
  top: "ImageData2"
  transform_param {
    scale: 0.00390625
  }
  image_data_param {
    source: "./datas/flower_dataset/train_source9.txt"
    batch_size: 1
    shuffle: false
    new_height: 192
    new_width: 192
    is_color: false
  }
}
layer {
  name: "ImageData3"
  type: "ImageData"
  top: "ImageData3"
  top: "ImageData4"
  transform_param {
    scale: 0.00390625
  }
  image_data_param {
    source: "./datas/flower_dataset/train_source10.txt"
    batch_size: 1
    shuffle: false
    new_height: 192
    new_width: 192
    is_color: false
  }
}
layer {
  name: "Concat47"
  type: "Concat"
  bottom: "ImageData1"
  bottom: "ImageData3"
  top: "Concat47"
  concat_param {
    axis: 1
  }
}
layer {
  name: "ImageData5"
  type: "ImageData"
  top: "ImageData5"
  top: "ImageData6"
  transform_param {
    scale: 0.00390625
  }
  image_data_param {
    source: "./datas/flower_dataset/train_source11.txt"
    batch_size: 1
    shuffle: false
    new_height: 192
    new_width: 192
    is_color: false
  }
}
layer {
  name: "Concat48"
  type: "Concat"
  bottom: "Concat47"
  bottom: "ImageData5"
  top: "Concat48"
  concat_param {
    axis: 1
  }
}
layer {
  name: "ImageData7"
  type: "ImageData"
  top: "ImageData7"
  top: "ImageData8"
  transform_param {
    scale: 0.00390625
  }
  image_data_param {
    source: "./datas/flower_dataset/train_source12.txt"
    batch_size: 1
    shuffle: false
    new_height: 192
    new_width: 192
    is_color: false
  }
}
layer {
  name: "Concat49"
  type: "Concat"
  bottom: "Concat48"
  bottom: "ImageData7"
  top: "Concat49"
  concat_param {
    axis: 1
  }
}
layer {
  name: "ImageData9"
  type: "ImageData"
  top: "ImageData9"
  top: "ImageData10"
  transform_param {
    scale: 0.00390625
  }
  image_data_param {
    source: "./datas/flower_dataset/train_source13.txt"
    batch_size: 1
    shuffle: false
    new_height: 192
    new_width: 192
    is_color: false
  }
}
layer {
  name: "Concat50"
  type: "Concat"
  bottom: "Concat49"
  bottom: "ImageData9"
  top: "Concat50"
  concat_param {
    axis: 1
  }
}
layer {
  name: "ImageData11"
  type: "ImageData"
  top: "ImageData11"
  top: "ImageData12"
  transform_param {
    scale: 0.00390625
  }
  image_data_param {
    source: "./datas/flower_dataset/train_source17.txt"
    batch_size: 1
    shuffle: false
    new_height: 192
    new_width: 192
    is_color: false
  }
}
layer {
  name: "Concat51"
  type: "Concat"
  bottom: "Concat50"
  bottom: "ImageData11"
  top: "Concat51"
  concat_param {
    axis: 1
  }
}
layer {
  name: "ImageData13"
  type: "ImageData"
  top: "ImageData13"
  top: "ImageData14"
  transform_param {
    scale: 0.00390625
  }
  image_data_param {
    source: "./datas/flower_dataset/train_source18.txt"
    batch_size: 1
    shuffle: false
    new_height: 192
    new_width: 192
    is_color: false
  }
}
layer {
  name: "Concat52"
  type: "Concat"
  bottom: "Concat51"
  bottom: "ImageData13"
  top: "Concat52"
  concat_param {
    axis: 1
  }
}
layer {
  name: "ImageData15"
  type: "ImageData"
  top: "ImageData15"
  top: "ImageData16"
  transform_param {
    scale: 0.00390625
  }
  image_data_param {
    source: "./datas/flower_dataset/train_source19.txt"
    batch_size: 1
    shuffle: false
    new_height: 192
    new_width: 192
    is_color: false
  }
}
layer {
  name: "Concat53"
  type: "Concat"
  bottom: "Concat52"
  bottom: "ImageData15"
  top: "Concat53"
  concat_param {
    axis: 1
  }
}
layer {
  name: "ImageData17"
  type: "ImageData"
  top: "ImageData17"
  top: "ImageData18"
  transform_param {
    scale: 0.00390625
  }
  image_data_param {
    source: "./datas/flower_dataset/train_source20.txt"
    batch_size: 1
    shuffle: false
    new_height: 192
    new_width: 192
    is_color: false
  }
}
layer {
  name: "Concat54"
  type: "Concat"
  bottom: "Concat53"
  bottom: "ImageData17"
  top: "Concat54"
  concat_param {
    axis: 1
  }
}
layer {
  name: "ImageData19"
  type: "ImageData"
  top: "ImageData19"
  top: "ImageData20"
  transform_param {
    scale: 0.00390625
  }
  image_data_param {
    source: "./datas/flower_dataset/train_source21.txt"
    batch_size: 1
    shuffle: false
    new_height: 192
    new_width: 192
    is_color: false
  }
}
layer {
  name: "Concat55"
  type: "Concat"
  bottom: "Concat54"
  bottom: "ImageData19"
  top: "Concat55"
  concat_param {
    axis: 1
  }
}
layer {
  name: "ImageData21"
  type: "ImageData"
  top: "ImageData21"
  top: "ImageData22"
  transform_param {
    scale: 0.00390625
  }
  image_data_param {
    source: "./datas/flower_dataset/train_source25.txt"
    batch_size: 1
    shuffle: false
    new_height: 192
    new_width: 192
    is_color: false
  }
}
layer {
  name: "Concat56"
  type: "Concat"
  bottom: "Concat55"
  bottom: "ImageData21"
  top: "Concat56"
  concat_param {
    axis: 1
  }
}
layer {
  name: "ImageData23"
  type: "ImageData"
  top: "ImageData23"
  top: "ImageData24"
  transform_param {
    scale: 0.00390625
  }
  image_data_param {
    source: "./datas/flower_dataset/train_source26.txt"
    batch_size: 1
    shuffle: false
    new_height: 192
    new_width: 192
    is_color: false
  }
}
layer {
  name: "Concat57"
  type: "Concat"
  bottom: "Concat56"
  bottom: "ImageData23"
  top: "Concat57"
  concat_param {
    axis: 1
  }
}
layer {
  name: "ImageData25"
  type: "ImageData"
  top: "ImageData25"
  top: "ImageData26"
  transform_param {
    scale: 0.00390625
  }
  image_data_param {
    source: "./datas/flower_dataset/train_source27.txt"
    batch_size: 1
    shuffle: false
    new_height: 192
    new_width: 192
    is_color: false
  }
}
layer {
  name: "Concat58"
  type: "Concat"
  bottom: "Concat57"
  bottom: "ImageData25"
  top: "Concat58"
  concat_param {
    axis: 1
  }
}
layer {
  name: "ImageData27"
  type: "ImageData"
  top: "ImageData27"
  top: "ImageData28"
  transform_param {
    scale: 0.00390625
  }
  image_data_param {
    source: "./datas/flower_dataset/train_source28.txt"
    batch_size: 1
    shuffle: false
    new_height: 192
    new_width: 192
    is_color: false
  }
}
layer {
  name: "Concat59"
  type: "Concat"
  bottom: "Concat58"
  bottom: "ImageData27"
  top: "Concat59"
  concat_param {
    axis: 1
  }
}
layer {
  name: "ImageData29"
  type: "ImageData"
  top: "ImageData29"
  top: "ImageData30"
  transform_param {
    scale: 0.00390625
  }
  image_data_param {
    source: "./datas/flower_dataset/train_source29.txt"
    batch_size: 1
    shuffle: false
    new_height: 192
    new_width: 192
    is_color: false
  }
}
layer {
  name: "Concat60"
  type: "Concat"
  bottom: "Concat59"
  bottom: "ImageData29"
  top: "Concat60"
  concat_param {
    axis: 1
  }
}
layer {
  name: "ImageData31"
  type: "ImageData"
  top: "ImageData31"
  top: "ImageData32"
  transform_param {
    scale: 0.00390625
  }
  image_data_param {
    source: "./datas/flower_dataset/train_source33.txt"
    batch_size: 1
    shuffle: false
    new_height: 192
    new_width: 192
    is_color: false
  }
}
layer {
  name: "Concat61"
  type: "Concat"
  bottom: "Concat60"
  bottom: "ImageData31"
  top: "Concat61"
  concat_param {
    axis: 1
  }
}
layer {
  name: "ImageData33"
  type: "ImageData"
  top: "ImageData33"
  top: "ImageData34"
  transform_param {
    scale: 0.00390625
  }
  image_data_param {
    source: "./datas/flower_dataset/train_source34.txt"
    batch_size: 1
    shuffle: false
    new_height: 192
    new_width: 192
    is_color: false
  }
}
layer {
  name: "Concat62"
  type: "Concat"
  bottom: "Concat61"
  bottom: "ImageData33"
  top: "Concat62"
  concat_param {
    axis: 1
  }
}
layer {
  name: "ImageData35"
  type: "ImageData"
  top: "ImageData35"
  top: "ImageData36"
  transform_param {
    scale: 0.00390625
  }
  image_data_param {
    source: "./datas/flower_dataset/train_source35.txt"
    batch_size: 1
    shuffle: false
    new_height: 192
    new_width: 192
    is_color: false
  }
}
layer {
  name: "Concat63"
  type: "Concat"
  bottom: "Concat62"
  bottom: "ImageData35"
  top: "Concat63"
  concat_param {
    axis: 1
  }
}
layer {
  name: "ImageData37"
  type: "ImageData"
  top: "ImageData37"
  top: "ImageData38"
  transform_param {
    scale: 0.00390625
  }
  image_data_param {
    source: "./datas/flower_dataset/train_source36.txt"
    batch_size: 1
    shuffle: false
    new_height: 192
    new_width: 192
    is_color: false
  }
}
layer {
  name: "Concat64"
  type: "Concat"
  bottom: "Concat63"
  bottom: "ImageData37"
  top: "Concat64"
  concat_param {
    axis: 1
  }
}
layer {
  name: "ImageData39"
  type: "ImageData"
  top: "ImageData39"
  top: "ImageData40"
  transform_param {
    scale: 0.00390625
  }
  image_data_param {
    source: "./datas/flower_dataset/train_source37.txt"
    batch_size: 1
    shuffle: false
    new_height: 192
    new_width: 192
    is_color: false
  }
}
layer {
  name: "Concat65"
  type: "Concat"
  bottom: "Concat64"
  bottom: "ImageData39"
  top: "Concat65"
  concat_param {
    axis: 1
  }
}
layer {
  name: "ImageData41"
  type: "ImageData"
  top: "ImageData41"
  top: "ImageData42"
  transform_param {
    scale: 0.00390625
  }
  image_data_param {
    source: "./datas/flower_dataset/train_source41.txt"
    batch_size: 1
    shuffle: false
    new_height: 192
    new_width: 192
    is_color: false
  }
}
layer {
  name: "Concat66"
  type: "Concat"
  bottom: "Concat65"
  bottom: "ImageData41"
  top: "Concat66"
  concat_param {
    axis: 1
  }
}
layer {
  name: "ImageData43"
  type: "ImageData"
  top: "ImageData43"
  top: "ImageData44"
  transform_param {
    scale: 0.00390625
  }
  image_data_param {
    source: "./datas/flower_dataset/train_source42.txt"
    batch_size: 1
    shuffle: false
    new_height: 192
    new_width: 192
    is_color: false
  }
}
layer {
  name: "Concat67"
  type: "Concat"
  bottom: "Concat66"
  bottom: "ImageData43"
  top: "Concat67"
  concat_param {
    axis: 1
  }
}
layer {
  name: "ImageData45"
  type: "ImageData"
  top: "ImageData45"
  top: "ImageData46"
  transform_param {
    scale: 0.00390625
  }
  image_data_param {
    source: "./datas/flower_dataset/train_source43.txt"
    batch_size: 1
    shuffle: false
    new_height: 192
    new_width: 192
    is_color: false
  }
}
layer {
  name: "Concat68"
  type: "Concat"
  bottom: "Concat67"
  bottom: "ImageData45"
  top: "Concat68"
  concat_param {
    axis: 1
  }
}
layer {
  name: "ImageData47"
  type: "ImageData"
  top: "ImageData47"
  top: "ImageData48"
  transform_param {
    scale: 0.00390625
  }
  image_data_param {
    source: "./datas/flower_dataset/train_source44.txt"
    batch_size: 1
    shuffle: false
    new_height: 192
    new_width: 192
    is_color: false
  }
}
layer {
  name: "Concat69"
  type: "Concat"
  bottom: "Concat68"
  bottom: "ImageData47"
  top: "Concat69"
  concat_param {
    axis: 1
  }
}
layer {
  name: "ImageData49"
  type: "ImageData"
  top: "ImageData49"
  top: "ImageData50"
  transform_param {
    scale: 0.00390625
  }
  image_data_param {
    source: "./datas/flower_dataset/train_source45.txt"
    batch_size: 1
    shuffle: false
    new_height: 192
    new_width: 192
    is_color: false
  }
}
layer {
  name: "label"
  type: "Concat"
  bottom: "Concat69"
  bottom: "ImageData49"
  top: "label"
  concat_param {
    axis: 1
  }
}
layer {
  name: "Eltwise2"
  type: "Eltwise"
  bottom: "ImageData2"
  bottom: "ImageData4"
  top: "Eltwise2"
  eltwise_param {
    operation: SUM
  }
}
layer {
  name: "Eltwise3"
  type: "Eltwise"
  bottom: "Eltwise2"
  bottom: "ImageData6"
  top: "Eltwise3"
  eltwise_param {
    operation: SUM
  }
}
layer {
  name: "Eltwise4"
  type: "Eltwise"
  bottom: "Eltwise3"
  bottom: "ImageData8"
  top: "Eltwise4"
  eltwise_param {
    operation: SUM
  }
}
layer {
  name: "Eltwise5"
  type: "Eltwise"
  bottom: "Eltwise4"
  bottom: "ImageData10"
  top: "Eltwise5"
  eltwise_param {
    operation: SUM
  }
}
layer {
  name: "Eltwise6"
  type: "Eltwise"
  bottom: "Eltwise5"
  bottom: "ImageData12"
  top: "Eltwise6"
  eltwise_param {
    operation: SUM
  }
}
layer {
  name: "Eltwise7"
  type: "Eltwise"
  bottom: "Eltwise6"
  bottom: "ImageData14"
  top: "Eltwise7"
  eltwise_param {
    operation: SUM
  }
}
layer {
  name: "Eltwise8"
  type: "Eltwise"
  bottom: "Eltwise7"
  bottom: "ImageData16"
  top: "Eltwise8"
  eltwise_param {
    operation: SUM
  }
}
layer {
  name: "Eltwise9"
  type: "Eltwise"
  bottom: "Eltwise8"
  bottom: "ImageData18"
  top: "Eltwise9"
  eltwise_param {
    operation: SUM
  }
}
layer {
  name: "Eltwise10"
  type: "Eltwise"
  bottom: "Eltwise9"
  bottom: "ImageData20"
  top: "Eltwise10"
  eltwise_param {
    operation: SUM
  }
}
layer {
  name: "Eltwise11"
  type: "Eltwise"
  bottom: "Eltwise10"
  bottom: "ImageData22"
  top: "Eltwise11"
  eltwise_param {
    operation: SUM
  }
}
layer {
  name: "Eltwise12"
  type: "Eltwise"
  bottom: "Eltwise11"
  bottom: "ImageData24"
  top: "Eltwise12"
  eltwise_param {
    operation: SUM
  }
}
layer {
  name: "Eltwise13"
  type: "Eltwise"
  bottom: "Eltwise12"
  bottom: "ImageData26"
  top: "Eltwise13"
  eltwise_param {
    operation: SUM
  }
}
layer {
  name: "Eltwise14"
  type: "Eltwise"
  bottom: "Eltwise13"
  bottom: "ImageData28"
  top: "Eltwise14"
  eltwise_param {
    operation: SUM
  }
}
layer {
  name: "Eltwise15"
  type: "Eltwise"
  bottom: "Eltwise14"
  bottom: "ImageData30"
  top: "Eltwise15"
  eltwise_param {
    operation: SUM
  }
}
layer {
  name: "Eltwise16"
  type: "Eltwise"
  bottom: "Eltwise15"
  bottom: "ImageData32"
  top: "Eltwise16"
  eltwise_param {
    operation: SUM
  }
}
layer {
  name: "Eltwise17"
  type: "Eltwise"
  bottom: "Eltwise16"
  bottom: "ImageData34"
  top: "Eltwise17"
  eltwise_param {
    operation: SUM
  }
}
layer {
  name: "Eltwise18"
  type: "Eltwise"
  bottom: "Eltwise17"
  bottom: "ImageData36"
  top: "Eltwise18"
  eltwise_param {
    operation: SUM
  }
}
layer {
  name: "Eltwise19"
  type: "Eltwise"
  bottom: "Eltwise18"
  bottom: "ImageData38"
  top: "Eltwise19"
  eltwise_param {
    operation: SUM
  }
}
layer {
  name: "Eltwise20"
  type: "Eltwise"
  bottom: "Eltwise19"
  bottom: "ImageData40"
  top: "Eltwise20"
  eltwise_param {
    operation: SUM
  }
}
layer {
  name: "Eltwise21"
  type: "Eltwise"
  bottom: "Eltwise20"
  bottom: "ImageData42"
  top: "Eltwise21"
  eltwise_param {
    operation: SUM
  }
}
layer {
  name: "Eltwise22"
  type: "Eltwise"
  bottom: "Eltwise21"
  bottom: "ImageData44"
  top: "Eltwise22"
  eltwise_param {
    operation: SUM
  }
}
layer {
  name: "Eltwise23"
  type: "Eltwise"
  bottom: "Eltwise22"
  bottom: "ImageData46"
  top: "Eltwise23"
  eltwise_param {
    operation: SUM
  }
}
layer {
  name: "Eltwise24"
  type: "Eltwise"
  bottom: "Eltwise23"
  bottom: "ImageData48"
  top: "Eltwise24"
  eltwise_param {
    operation: SUM
  }
}
layer {
  name: "trash_tot"
  type: "Eltwise"
  bottom: "Eltwise24"
  bottom: "ImageData50"
  top: "trash_tot"
  eltwise_param {
    operation: SUM
  }
}
layer {
  name: "trash1"
  type: "Python"
  bottom: "flow_h"
  top: "trash1"
  python_param {
    module: "visualization_layer"
    layer: "VisualizationLayer"
    param_str: "{\'path\': \'./datas/flower_dataset\', \'name\': \'flow_h\', \'mult\': 110}"
  }
}
layer {
  name: "trash2"
  type: "Python"
  bottom: "flow_v"
  top: "trash2"
  python_param {
    module: "visualization_layer"
    layer: "VisualizationLayer"
    param_str: "{\'path\': \'./datas/flower_dataset\', \'name\': \'flow_v\', \'mult\': 110}"
  }
}
layer {
  name: "trash3"
  type: "Python"
  bottom: "shift"
  top: "trash3"
  python_param {
    module: "visualization_layer"
    layer: "VisualizationLayer"
    param_str: "{\'path\': \'./datas/flower_dataset\', \'name\': \'input\', \'mult\': 256}"
  }
}
layer {
  name: "trash4"
  type: "Python"
  bottom: "label"
  top: "trash4"
  python_param {
    module: "visualization_layer"
    layer: "VisualizationLayer"
    param_str: "{\'path\': \'./datas/flower_dataset\', \'name\': \'label\', \'mult\': 256}"
  }
}
layer {
  name: "trash5"
  type: "Python"
  bottom: "predict"
  top: "trash5"
  python_param {
    module: "visualization_layer"
    layer: "VisualizationLayer"
    param_str: "{\'path\': \'./datas/flower_dataset\', \'name\': \'predict\', \'mult\': 256}"
  }
}
